S22_10701_hw3/autograder/code/Reference_Outputs/check1_params.npz (npz, 3920 bytes, 2 tensors)

alpha f8 [3, 129]
000000 aa 7f 3c a3 e0 9d a5 bf 0b 49 c7 24 5e 7c 7a 3f
       -0.04222013466483017 0.006466262577719438
000010 dc fd 5e 6e f7 31 a2 3f 5e 90 5a 2b f7 31 a4 3f
       0.03553746435454361 0.03944370655270356
000020 cb 35 bf e3 7e 11 b7 3f 54 15 b4 e6 32 12 b3 3f
       0.09011071262576491 0.07449644215019663
000030 ae 0e 88 db e7 5b 95 3f 9a a5 7c 95 6e e7 36 bf
       0.020858404897821252 -0.0003494877796464624
000040 58 08 35 50 97 46 7a 3f 10 b7 53 67 59 39 3d bf
       0.006414977138151277 -0.0004459231634673525
000050 e6 90 44 ea f5 d6 5c bf 0f 64 e5 f9 1f 6a 88 3f
       -0.0017602349772199376 0.011921167196009134
000060 63 d9 47 30 f5 d1 b2 3f 88 83 87 73 74 df 34 bf
       0.0735162012932498 -0.00031849473046290837
000070 fe d8 e8 0d aa 75 a0 bf 83 fa 33 e6 07 7e 92 bf
       -0.03214770717424818 -0.018058894563177674
000080 73 45 60 74 28 e0 79 bf 81 0c eb ec 90 21 79 bf
       -0.006317289376981494 -0.0061355267668573585
000090 cc f0 1a 32 ae 35 a2 bf 0b c1 45 4c 85 81 92 bf
       -0.03556579934726897 -0.018072207241346876
0000a0 14 85 d2 ca 56 93 93 3f 02 bd 9b 22 d6 2a a7 bf
       0.01911674130372372 -0.045248691296245994
0000b0 26 2e b2 fa a0 a5 ac bf 16 91 a6 82 cb 55 9d bf
       -0.05595114765409574 -0.028647594308169287
0000c0 f4 e0 7b e9 94 16 9b bf 60 96 99 b4 5c 64 9e bf
       -0.026453329802252193 -0.02967972614569303
0000d0 b8 e2 65 90 94 52 ae bf 12 b8 fa 3d f0 60 a3 bf
       -0.05922378790541444 -0.03784895664772149
0000e0 86 68 f0 cb f5 d3 8e bf e6 df ba 5e db d7 b0 bf
       -0.015052719389178525 -0.06579371512168528
0000f0 02 13 15 99 a0 a6 b1 bf d7 d2 3f 38 57 61 a8 bf
       -0.06894878136979446 -0.04761765061986061
000100 3f 1c 02 67 d9 e3 a4 bf 1f 54 80 9a 1f e8 a9 bf
       -0.0408008516542897 -0.05059908638956067
000110 16 a5 ba 68 d4 ea ba bf 9d d4 5f 2d 69 31 b8 bf
       -0.10514571720945684 -0.09450394971630023
000120 50 3e d1 3b 13 27 9f bf 23 87 73 09 05 0c bf bf
       -0.030422497297250495 -0.12127715569252166
000130 d1 aa f6 d7 9c 30 bb bf d6 fa ca e3 61 4a b5 bf
       -0.1062105204825159 -0.0831662350783334
000140 29 ef 8f ec 37 f2 b5 bf f2 33 c3 2d 34 bb b8 bf
       -0.08572721028752696 -0.0966065036511308
000150 4b 50 cd 77 49 76 c2 bf a2 ab a2 1a 86 24 bf bf
       -0.14423483228404374 -0.12165105963019454
000160 26 1b 75 b7 76 1e 94 bf 82 bb a6 51 63 df b5 bf
       -0.019647459933618404 -0.08543987983169468
000170 cf 7b 5a 48 90 a9 b9 bf 68 75 e0 3f ad a6 b7 bf
       -0.10024358526651088 -0.09238703546039562
000180 26 a7 1d f9 6b 40 b9 bf 72 26 3b f1 70 b5 c5 bf
       -0.09863924819879041 -0.16959964541301847
000190 3a f6 16 64 3b b7 c2 bf ff 28 98 33 52 d2 b5 bf
       -0.14621679675285454 -0.08524049529674825
0001a0 aa 89 01 5b 2c da 9a 3f 8b 7d bd 52 e8 c2 a2 bf
       0.026222889952245566 -0.036643276310083094
0001b0 1f 8d f5 cc 20 ae b3 bf fa 95 9f 3c 7d ee b8 bf
       -0.07687573436628668 -0.09738905649245302
0001c0 4a 26 60 8e d6 f7 b9 bf b6 bd 94 7a b3 89 c9 bf
       -0.10143795944181835 -0.19951480374719005
0001d0 dc f6 d6 e2 aa 3e b8 bf 40 24 f7 2d 73 21 b5 bf
       -0.09470623052672117 -0.08254165527536461
0001e0 8d 3e d8 6b c9 c0 b3 3f ec 20 35 60 b8 c1 a2 bf
       0.0771604431431518 -0.03663421797188157
0001f0 fc b2 a8 1a 06 cf b9 bf ad 39 6a f9 90 0f b0 bf
       -0.10081518317083388 -0.06273752297622677
000200 9b f9 08 6c ac 49 b8 bf 57 8e a3 30 2d a8 cb bf
       -0.09487416875433612 -0.21606984019227823
000210 6b f4 42 9a 24 e8 b0 bf 40 f3 51 6d 9d 60 ac bf
       -0.06604222074652603 -0.05542461356615158
000220 ce 1a 41 4d 56 79 b8 3f f4 e6 f9 2d 0e 5e 4c 3f
       0.09560145746318513 0.0008657044636059806
000230 49 10 d9 66 19 db b7 bf ce 2b 6f ee 82 20 a9 bf
       -0.09318693886695074 -0.049076167684311764
000240 6e ed a5 29 a2 df b7 bf 59 4c 27 77 b2 c9 ca bf
       -0.09325612561035765 -0.2092803079418413
000250 4d 76 2e 37 3d 55 b3 bf df b5 a2 7e 5f 00 a9 bf
       -0.07551939580158624 -0.04883097096294952
000260 d6 f5 90 89 d6 e1 b3 3f 39 9a 75 b6 2e 65 a2 3f
       0.07766476496268324 0.03592821099555405
000270 d5 54 86 18 4c 53 ab bf 1a 26 a5 c2 66 48 b3 bf
       -0.053369882577649776 -0.07532350780561395
000280 8b 6e 0c ed fa 0e be bf 16 bd c5 59 3f e2 c8 bf
       -0.11741607940023806 -0.19440452464503072
000290 2c 60 98 f6 12 a7 b8 bf 50 36 72 11 6f 6b ad bf
       -0.09629934807196666 -0.05746028030362693
0002a0 46 a6 50 7f 91 e5 ad 3f 73 a5 b8 a4 87 4f ac 3f
       0.05839209250582349 0.05529426465757128
0002b0 41 19 85 31 cc 51 b0 bf 4d 58 62 a1 65 6a be bf
       -0.06374813279135073 -0.11881098928492513
0002c0 6f 87 fa 4d 85 ed c0 bf 83 b5 bd 4a d3 c4 c1 bf
       -0.13224855716276404 -0.1388191332766092
0002d0 47 1a fd 0e 01 87 b6 bf d0 55 ab 02 fb e1 b1 bf
       -0.0879974996179068 -0.06985443892639087
0002e0 e2 4b e2 df a1 6d a2 3f 65 09 90 ee 5a 6d a5 3f
       0.03599267824133513 0.041849938985268044
0002f0 bc 28 a9 4b 16 68 b4 bf 63 6d bb 49 31 7d b6 bf
       -0.07971324298083265 -0.08784778642750761
000300 db de e6 29 59 63 b9 bf 8c cb 83 dc 59 3f b2 bf
       -0.09917218468660442 -0.07127915986693106
000310 57 fd 4d 3e a4 a5 aa bf 31 21 71 31 db 41 a5 bf
       -0.05204499493174335 -0.041518068108930335
000320 8c ea 89 be 4c 64 a9 3f 53 fe 6f 7b 56 08 b1 3f
       0.04959335161125464 0.0665334750519773
000330 37 b8 d5 d9 26 83 a1 bf 3b 5d f9 d8 d1 a3 a6 bf
       -0.034203733531157736 -0.044218595253079994
000340 d0 eb 93 b5 9d db aa bf 80 0d d1 aa f9 b1 a3 bf
       -0.05245678750539862 -0.038467218495976674
000350 60 e4 f0 b3 01 94 9c bf f1 2f 41 de 00 8b 8f bf
       -0.027908350570417517 -0.015401846678422234
000360 9f 0e 42 53 75 af a6 3f de 29 10 53 8d a6 b0 3f
       0.04430739060719912 0.06504138257893241
000370 86 f4 85 e0 ac 7d 97 bf 1f 59 3c 80 32 3e 95 bf
       -0.02294035072690239 -0.020745076252830615
000380 96 71 1a 80 da 87 a0 bf 8b 2b 4d 4e 62 52 84 bf
       -0.03228648008118566 -0.009922760023661123
000390 78 ab 2e 16 f5 b0 91 bf 08 13 d9 56 98 00 78 bf
       -0.017276601294422517 -0.0058599425079293235
0003a0 6e 6a 29 40 00 72 9f 3f fe 9c 25 55 ac d9 b6 3f
       0.030708316722988398 0.08925892905027763
0003b0 00 dc 52 b3 9b 82 64 bf b9 07 13 cc ef 9e 89 bf
       -0.002503685095315955 -0.012510178962091932
0003c0 c3 c4 ec fd b3 9f 96 bf 55 88 59 69 39 bd 7a bf
       -0.022093593953461232 -0.006528114570388229
0003d0 db 76 2c 6e 37 26 85 bf 4e 86 72 c1 70 ee 6a 3f
       -0.01032679848645606 0.003287525392423863
0003e0 1d 86 f6 01 bd 10 9c 3f 6c 02 98 45 6c ec b6 3f
       0.02740760158997634 0.08954502772395195
0003f0 e0 cb df dc 85 4b a2 3f 85 6d d8 33 2a 63 97 3f
       0.03573244401186293 0.02283922139586771
000400 94 99 63 44 95 7c 78 bf aa 7f 3c a3 e0 9d a5 bf
       -0.005978186678680681 -0.04222013466483017
000410 0b 49 c7 24 5e 7c 7a 3f dc fd 5e 6e f7 31 a2 3f
       0.006466262577719438 0.03553746435454361
000420 5e 90 5a 2b f7 31 a4 3f cb 35 bf e3 7e 11 b7 3f
       0.03944370655270356 0.09011071262576491
000430 54 15 b4 e6 32 12 b3 3f ae 0e 88 db e7 5b 95 3f
       0.07449644215019663 0.020858404897821252
000440 9a a5 7c 95 6e e7 36 bf 58 08 35 50 97 46 7a 3f
       -0.0003494877796464624 0.006414977138151277
000450 10 b7 53 67 59 39 3d bf e6 90 44 ea f5 d6 5c bf
       -0.0004459231634673525 -0.0017602349772199376
000460 0f 64 e5 f9 1f 6a 88 3f 63 d9 47 30 f5 d1 b2 3f
       0.011921167196009134 0.0735162012932498
000470 88 83 87 73 74 df 34 bf fe d8 e8 0d aa 75 a0 bf
       -0.00031849473046290837 -0.03214770717424818
000480 83 fa 33 e6 07 7e 92 bf 73 45 60 74 28 e0 79 bf
       -0.018058894563177674 -0.006317289376981494
000490 81 0c eb ec 90 21 79 bf cc f0 1a 32 ae 35 a2 bf
       -0.0061355267668573585 -0.03556579934726897
0004a0 0b c1 45 4c 85 81 92 bf 14 85 d2 ca 56 93 93 3f
       -0.018072207241346876 0.01911674130372372
0004b0 02 bd 9b 22 d6 2a a7 bf 26 2e b2 fa a0 a5 ac bf
       -0.045248691296245994 -0.05595114765409574
0004c0 16 91 a6 82 cb 55 9d bf f4 e0 7b e9 94 16 9b bf
       -0.028647594308169287 -0.026453329802252193
0004d0 60 96 99 b4 5c 64 9e bf b8 e2 65 90 94 52 ae bf
       -0.02967972614569303 -0.05922378790541444
0004e0 12 b8 fa 3d f0 60 a3 bf 86 68 f0 cb f5 d3 8e bf
       -0.03784895664772149 -0.015052719389178525
0004f0 e6 df ba 5e db d7 b0 bf 02 13 15 99 a0 a6 b1 bf
       -0.06579371512168528 -0.06894878136979446
000500 d7 d2 3f 38 57 61 a8 bf 3f 1c 02 67 d9 e3 a4 bf
       -0.04761765061986061 -0.0408008516542897
000510 1f 54 80 9a 1f e8 a9 bf 16 a5 ba 68 d4 ea ba bf
       -0.05059908638956067 -0.10514571720945684
000520 9d d4 5f 2d 69 31 b8 bf 50 3e d1 3b 13 27 9f bf
       -0.09450394971630023 -0.030422497297250495
000530 23 87 73 09 05 0c bf bf d1 aa f6 d7 9c 30 bb bf
       -0.12127715569252166 -0.1062105204825159
000540 d6 fa ca e3 61 4a b5 bf 29 ef 8f ec 37 f2 b5 bf
       -0.0831662350783334 -0.08572721028752696
000550 f2 33 c3 2d 34 bb b8 bf 4b 50 cd 77 49 76 c2 bf
       -0.0966065036511308 -0.14423483228404374
000560 a2 ab a2 1a 86 24 bf bf 26 1b 75 b7 76 1e 94 bf
       -0.12165105963019454 -0.019647459933618404
000570 82 bb a6 51 63 df b5 bf cf 7b 5a 48 90 a9 b9 bf
       -0.08543987983169468 -0.10024358526651088
000580 68 75 e0 3f ad a6 b7 bf 26 a7 1d f9 6b 40 b9 bf
       -0.09238703546039562 -0.09863924819879041
000590 72 26 3b f1 70 b5 c5 bf 3a f6 16 64 3b b7 c2 bf
       -0.16959964541301847 -0.14621679675285454
0005a0 ff 28 98 33 52 d2 b5 bf aa 89 01 5b 2c da 9a 3f
       -0.08524049529674825 0.026222889952245566
0005b0 8b 7d bd 52 e8 c2 a2 bf 1f 8d f5 cc 20 ae b3 bf
       -0.036643276310083094 -0.07687573436628668
0005c0 fa 95 9f 3c 7d ee b8 bf 4a 26 60 8e d6 f7 b9 bf
       -0.09738905649245302 -0.10143795944181835
0005d0 b6 bd 94 7a b3 89 c9 bf dc f6 d6 e2 aa 3e b8 bf
       -0.19951480374719005 -0.09470623052672117
0005e0 40 24 f7 2d 73 21 b5 bf 8d 3e d8 6b c9 c0 b3 3f
       -0.08254165527536461 0.0771604431431518
0005f0 ec 20 35 60 b8 c1 a2 bf fc b2 a8 1a 06 cf b9 bf
       -0.03663421797188157 -0.10081518317083388
000600 ad 39 6a f9 90 0f b0 bf 9b f9 08 6c ac 49 b8 bf
       -0.06273752297622677 -0.09487416875433612
000610 57 8e a3 30 2d a8 cb bf 6b f4 42 9a 24 e8 b0 bf
       -0.21606984019227823 -0.06604222074652603
000620 40 f3 51 6d 9d 60 ac bf ce 1a 41 4d 56 79 b8 3f
       -0.05542461356615158 0.09560145746318513
000630 f4 e6 f9 2d 0e 5e 4c 3f 49 10 d9 66 19 db b7 bf
       0.0008657044636059806 -0.09318693886695074
000640 ce 2b 6f ee 82 20 a9 bf 6e ed a5 29 a2 df b7 bf
       -0.049076167684311764 -0.09325612561035765
000650 59 4c 27 77 b2 c9 ca bf 4d 76 2e 37 3d 55 b3 bf
       -0.2092803079418413 -0.07551939580158624
000660 df b5 a2 7e 5f 00 a9 bf d6 f5 90 89 d6 e1 b3 3f
       -0.04883097096294952 0.07766476496268324
000670 39 9a 75 b6 2e 65 a2 3f d5 54 86 18 4c 53 ab bf
       0.03592821099555405 -0.053369882577649776
000680 1a 26 a5 c2 66 48 b3 bf 8b 6e 0c ed fa 0e be bf
       -0.07532350780561395 -0.11741607940023806
000690 16 bd c5 59 3f e2 c8 bf 2c 60 98 f6 12 a7 b8 bf
       -0.19440452464503072 -0.09629934807196666
0006a0 50 36 72 11 6f 6b ad bf 46 a6 50 7f 91 e5 ad 3f
       -0.05746028030362693 0.05839209250582349
0006b0 73 a5 b8 a4 87 4f ac 3f 41 19 85 31 cc 51 b0 bf
       0.05529426465757128 -0.06374813279135073
0006c0 4d 58 62 a1 65 6a be bf 6f 87 fa 4d 85 ed c0 bf
       -0.11881098928492513 -0.13224855716276404
0006d0 83 b5 bd 4a d3 c4 c1 bf 47 1a fd 0e 01 87 b6 bf
       -0.1388191332766092 -0.0879974996179068
0006e0 d0 55 ab 02 fb e1 b1 bf e2 4b e2 df a1 6d a2 3f
       -0.06985443892639087 0.03599267824133513
0006f0 65 09 90 ee 5a 6d a5 3f bc 28 a9 4b 16 68 b4 bf
       0.041849938985268044 -0.07971324298083265
000700 63 6d bb 49 31 7d b6 bf db de e6 29 59 63 b9 bf
       -0.08784778642750761 -0.09917218468660442
000710 8c cb 83 dc 59 3f b2 bf 57 fd 4d 3e a4 a5 aa bf
       -0.07127915986693106 -0.05204499493174335
000720 31 21 71 31 db 41 a5 bf 8c ea 89 be 4c 64 a9 3f
       -0.041518068108930335 0.04959335161125464
000730 53 fe 6f 7b 56 08 b1 3f 37 b8 d5 d9 26 83 a1 bf
       0.0665334750519773 -0.034203733531157736
000740 3b 5d f9 d8 d1 a3 a6 bf d0 eb 93 b5 9d db aa bf
       -0.044218595253079994 -0.05245678750539862
000750 80 0d d1 aa f9 b1 a3 bf 60 e4 f0 b3 01 94 9c bf
       -0.038467218495976674 -0.027908350570417517
000760 f1 2f 41 de 00 8b 8f bf 9f 0e 42 53 75 af a6 3f
       -0.015401846678422234 0.04430739060719912
000770 de 29 10 53 8d a6 b0 3f 86 f4 85 e0 ac 7d 97 bf
       0.06504138257893241 -0.02294035072690239
000780 1f 59 3c 80 32 3e 95 bf 96 71 1a 80 da 87 a0 bf
       -0.020745076252830615 -0.03228648008118566
000790 8b 2b 4d 4e 62 52 84 bf 78 ab 2e 16 f5 b0 91 bf
       -0.009922760023661123 -0.017276601294422517
0007a0 08 13 d9 56 98 00 78 bf 6e 6a 29 40 00 72 9f 3f
       -0.0058599425079293235 0.030708316722988398
0007b0 fe 9c 25 55 ac d9 b6 3f 00 dc 52 b3 9b 82 64 bf
       0.08925892905027763 -0.002503685095315955
0007c0 b9 07 13 cc ef 9e 89 bf c3 c4 ec fd b3 9f 96 bf
       -0.012510178962091932 -0.022093593953461232
0007d0 55 88 59 69 39 bd 7a bf db 76 2c 6e 37 26 85 bf
       -0.006528114570388229 -0.01032679848645606
0007e0 4e 86 72 c1 70 ee 6a 3f 1d 86 f6 01 bd 10 9c 3f
       0.003287525392423863 0.02740760158997634
0007f0 6c 02 98 45 6c ec b6 3f e0 cb df dc 85 4b a2 3f
       0.08954502772395195 0.03573244401186293

beta f8 [10, 4]
000000 05 b8 3f 92 19 9c d8 3f 22 7e ea 60 65 16 ce bf
       0.3845275810443812 -0.23505847198701796
000010 22 7e ea 60 65 16 ce bf 25 7e ea 60 65 16 ce bf
       -0.23505847198701796 -0.23505847198701804
000020 8c ff 7c f5 9f fd c2 3f 5f 8a 77 ff a0 51 cd bf
       0.14836501585704942 -0.2290536162755243
000030 5f 8a 77 ff a0 51 cd bf 60 8a 77 ff a0 51 cd bf
       -0.2290536162755243 -0.22905361627552434
000040 ef eb 29 4d e9 00 b3 3f a4 18 45 6b 68 a8 9c bf
       0.07423265584831971 -0.027986175105319547
000050 a4 18 45 6b 68 a8 9c bf c1 18 45 6b 68 a8 9c bf
       -0.027986175105319547 -0.027986175105319647
000060 23 cb cd 6b c8 34 d7 bf 0a d2 eb 0c 6e 11 dd 3f
       -0.3625966122410082 0.4541888357337319
000070 0a d2 eb 0c 6e 11 dd 3f 09 d2 eb 0c 6e 11 dd 3f
       0.4541888357337319 0.45418883573373187
000080 96 a6 7d 15 26 c1 73 bf 69 98 0b 64 10 67 e0 3f
       -0.0048228728918303845 0.5125810579309135
000090 69 98 0b 64 10 67 e0 3f 68 98 0b 64 10 67 e0 3f
       0.5125810579309135 0.5125810579309134
0000a0 e3 1d e4 ca 82 0f d2 bf 44 7d 30 b2 e2 5b c7 bf
       -0.28219671071607716 -0.18249162388472417
0000b0 44 7d 30 b2 e2 5b c7 bf 41 7d 30 b2 e2 5b c7 bf
       -0.18249162388472417 -0.1824916238847241
0000c0 ee c6 32 9c bf 5d e0 3f 41 2e f5 dc 91 28 cd bf
       0.5114439059018119 -0.22780059136344913
0000d0 41 2e f5 dc 91 28 cd bf 3a 2e f5 dc 91 28 cd bf
       -0.22780059136344913 -0.22780059136344893
0000e0 10 d7 ee fd b7 e8 82 3f 25 c2 ba 75 a0 90 b3 bf
       0.009232938229483817 -0.07642557977920512
0000f0 25 c2 ba 75 a0 90 b3 bf 20 c2 ba 75 a0 90 b3 bf
       -0.07642557977920512 -0.07642557977920506
000100 2e fb fc 33 27 d3 a3 bf 18 c8 37 f8 42 ea c3 3f
       -0.0387203455888908 0.15558659667982577
000110 18 c8 37 f8 42 ea c3 3f 16 c8 37 f8 42 ea c3 3f
       0.15558659667982577 0.15558659667982572
000120 56 38 16 23 34 20 dc bf b7 15 70 6a 88 5f c2 bf
       -0.4394655554432395 -0.14354043194923147
000130 b7 15 70 6a 88 5f c2 bf b6 15 70 6a 88 5f c2 bf
       -0.14354043194923147 -0.14354043194923144
